…
Building PSO + CNN + LSTM Hybrid Model Architecture:
============================================================
1. CNN Layers for spatial feature extraction
2. LSTM Layers for temporal pattern recognition
3. PSO-optimized hyperparameters for optimal performance
============================================================

PSO + CNN + LSTM Hybrid Model Architecture:
Model: "sequential_160"
_________________________________________________________________
 Layer (type)                Output Shape              Param #
=================================================================
 conv1d_320 (Conv1D)         (None, 10, 66)            16302

 batch_normalization_320 (Ba  (None, 10, 66)           264
 tchNormalization)

 max_pooling1d_160 (MaxPooli  (None, 5, 66)            0
 ng1D)

 conv1d_321 (Conv1D)         (None, 5, 222)            44178

 batch_normalization_321 (Ba  (None, 5, 222)           888
 tchNormalization)

 dropout_640 (Dropout)       (None, 5, 222)            0

 lstm_320 (LSTM)                          96960

 dropout_641 (Dropout)       (None, 5, 80)             0

 lstm_321 (LSTM)             (None, 40)                19360

 dropout_642 (Dropout)       (None, 40)                0

 dense_320 (Dense)           (None, 70)                2870

 dropout_643 (Dropout)       (None, 70)                0

 dense_321 (Dense)           (None, 11)                781

=================================================================
Total params: 181,603
Trainable params: 181,027
Non-trainable params: 576
_________________________________________________________________

Training the PSO-optimized CNN-LSTM hybrid model...
Epoch 1/100
53/53 [==============================] - 3s 19ms/step - loss: 1.3681 - accuracy: 0.6240 - val_loss: 0.8495 - val_accuracy: 0.7402 - lr: 0.0011
…
